cartpole/policy.pt (torch, 72393 bytes, 6 tensors)

layer1.weight f4 [128, 4]
00000000: beb2 c4be 6d00 3ebe f688 993e af8f f33d
00000010: b3cb 10bf 3ac7 fabc cdd9 a23e e027 ba3c
00000020: 1211 bfbe cf00 08bd 269d ec3c 7613 38be
00000030: 422d 39be b952 c2bc 1f1e 273f 75fc a53c
00000040: f96e abbe 18cf 873e d13e 0c3f 85aa cfbd
00000050: a48d a73e 2d71 c43e 01cd 143f fc0e 9b3e
00000060: 9729 afbe da21 be3c 84ae d0be bbeb 46bc
00000070: 6d9c 96be 4f14 2fbe 3e27 e2ba d52f 103d
00000080: 03f6 ac3b e695 2e3e 5003 e3be 638f b73c
00000090: 2e13 373f d7bc a83e c136 4f3f e079 7b3e
000000a0: d5eb 0bbf 1c3c a43e 2e6b be3e 9ce6 a73e
000000b0: 337d 10bd cb93 043e a293 7a3e 8108 cfbd
000000c0: 9044 a0bb 363b bc3e 7b37 5d3f a4c5 a83e
000000d0: d6d6 a7be f1ca 1dbe c082 4abf a7fa 55be
000000e0: 093c 813e f78a 093e 36c2 d3be daa5 34be
000000f0: 1432 33be 35ce 263e a6b5 553f aae7 973e
00000100: d3e3 12be 5290 24bc 3e81 80be bc3a 513e
00000110: b0dd 5dbd ba4b 2dbe 38b2 7f3d 7a56 90bc
00000120: aad3 ce3e 6486 4bbd 798e 5fbe 38db 95be
00000130: 63cf 31be f7f7 9ebe 0c2f 933e 71bf 6fbe
00000140: e493 36bd e26b 3a3d 52c4 b6be 968c 133e
00000150: f9e1 173f 1604 cf3e 603c e93e d429 943e
00000160: a737 c0bd 7f1e a53d 83dd 0d3f 110b d23d
00000170: 366d 88be 71f5 39be d767 24be 3f70 813e
00000180: 38de 96bd 2f0e eb3d 165f 463f 0d00 ae3e
00000190: fe0c 203e 4988 3cbe 6c7b 7f3e b57d 2a3d
000001a0: 47c1 30be 9f6e 963b dbba 07be d0f6 cdbd
000001b0: f698 783e e4a1 55be 4918 cebd e1b4 25be
000001c0: ccd7 603e 0b2e 913e 5171 063f 9066 9f3e
000001d0: e737 c6bc 27c1 2cbe d92e 9c3e 5134 83bd
000001e0: 730f 01be d875 353e 4680 213f a293 813e
000001f0: 65b7 05be d5c7 65be 8b0a 48be a1bd 8bbe
00000200: ef1f 5ebe 4c96 9a3e 3c76 2d3d 76f4 b2be
00000210: 5076 df3d 1a2a 2cbc a100 a63d 1df7 953e
00000220: 83c6 57be c43a 54bd ba2d 3fbf 6231 c4bd
00000230: 556a 64be f70a edbd a148 c2bd 04a0 523e
00000240: 677e 183e 351a 7c3e f14e 253d 9613 81be
00000250: 0730 aabe 17c0 babe 725f febe f283 79be
00000260: 83bc 573e c087 623e ffd3 a03c 2b8d 5a3e
00000270: 1dcb a83e 2ec4 e33d 07ec 833e cac6 92be
00000280: 0af8 233e 1f17 83be 3315 163e 9f63 93bd
00000290: a85a 24be 21a0 b7be 87cc f53d 4d9f aabe
000002a0: 26b5 d23e d1f6 e33e 18ab 073f d1db a83e
000002b0: a2f9 b2be b4f7 ce3d 501e 9a3e 5f88 99bd
000002c0: ec21 c7be f57f 07bf fd4e 203f 54cb a73e
000002d0: 571a 3dbe e634 87be 2b02 323e a770 613b
000002e0: f0a9 013f b276 23be 6d96 873e 6b31 f6bd
000002f0: f8e1 05be 19ed 52be 034f 513f 91e0 bebd
00000300: 27cb e9be 95c7 e73c 638d 7f3f 425e 773e
00000310: 7f9b 9ebd f3ca 8d3e 745c a3bd 709a 533e
00000320: bc05 f93d fe3e b03d e345 23bb bdd8 afbd
00000330: 96b1 f9be e330 58be 01ca c93b cdd9 febd
00000340: c7e3 82be 7688 9ebe 1a94 47bf a0eb 9cbe
00000350: db68 89be 1fae a7be 4fa3 9c3e 8d32 65be
00000360: c313 ce3e eed0 58be 22d0 41be b255 9fbe
00000370: b5c0 0f3f ca2b ad3e 63ad 163f 3d9c 743e
00000380: 77b8 883e 05d4 193e 94eb 86bd 9d1f cabd
00000390: 7f53 cfbe cc8b c6be 6571 473e 9d01 6dbe
000003a0: 3c21 cbbe 13e2 fbbc 5093 753e 3f9d 81bd
000003b0: 1017 4abd d748 453e 8cb0 653e d569 95be
000003c0: 988e c23e 57fd b3be 7b38 ccbe b582 513e
000003d0: 6bed 0c3f cec6 3dbe 6de3 af3e d693 433d
000003e0: 8411 a9ba 38b7 c1be 9439 e4be 43bf 793e
000003f0: 77c3 2bbe 3b2e 1a3d ead0 5ebe 1f81 9e3d
-0.3841762 -0.1855485 0.29987305 0.1189264 -0.5656082 -0.030612577 0.31806794 0.022724092
-0.3731771 -0.033203896 0.028883528 -0.17976174 -0.1808367 -0.023721086 0.65280336 0.020261982
-0.33483103 0.26525187 0.5478335 -0.10139946 0.3272525 0.38367596 0.5812531 0.3028487
-0.34211418 0.023209501 -0.40758145 -0.012141163 -0.29416218 -0.17097591 -0.0017254127 0.035201866
0.0052783503 0.17049369 -0.44338465 0.02240724 0.7151364 0.32956573 0.8094292 0.2455821
-0.54656726 0.3207711 0.37191147 0.32793128 -0.03527565 0.12947004 0.2447038 -0.10109044
-0.004890986 0.36763924 0.8641278 0.32963288 -0.32781094 -0.15409447 -0.7910576 -0.20896398
0.25241116 0.13431917 -0.4135911 -0.17641392 -0.17499572 0.16289599 0.834803 0.29668933
-0.1434472 -0.010044174 -0.25098604 0.20432562 -0.054166496 -0.16923419 0.062425822 -0.01761936
0.40395862 -0.04968871 -0.21831693 -0.29268813 -0.17364268 -0.31048557 0.2874683 -0.23412873
-0.044574633 0.04551304 -0.35696656 0.14409098 0.5932918 0.40432805 0.45553875 0.28938162
-0.09385615 0.08062457 0.55416125 0.10256017 -0.2664582 -0.18160035 -0.16055237 0.2528095
-0.073666036 0.11477315 0.7748884 0.33984414 0.15629956 -0.18411364 0.24949425 0.04162379
-0.1726123 0.004590824 -0.13254873 -0.100568414 0.242771 -0.20862538 -0.10063226 -0.16182281
0.2195732 0.2835544 0.5251666 0.31132936 -0.024196578 -0.16870557 0.30504492 -0.06406463
-0.1260355 0.17720735 0.63086355 0.25307947 -0.1305824 -0.22439511 -0.19535272 -0.27293113
-0.21691869 0.30192792 0.042349085 -0.34952134 0.10911238 -0.010508085 0.08105589 0.29290095
-0.2107182 -0.051813856 -0.7467915 -0.095797315 -0.22306187 -0.11574357 -0.09486509 0.20568854
0.14891969 0.24619372 0.040358488 -0.25210255 -0.33239767 -0.36474678 -0.49682194 -0.2436674
0.21068005 0.22122097 0.019632338 0.21342914 0.32967463 0.11121403 0.25766012 -0.2866729
0.16012588 -0.25603577 0.14656524 -0.071967356 -0.16050208 -0.35864356 0.12001901 -0.33324662
0.4115383 0.44524243 0.52995443 0.32980207 -0.3495608 0.10105839 0.30101252 -0.07496714
-0.38893068 -0.5292962 0.62620527 0.32772315 -0.18467079 -0.26407546 0.1738364 0.0034399421
0.5064993 -0.15963247 0.26481953 -0.120211445 -0.13074481 -0.20598258 0.8176119 -0.093201764
-0.45662805 0.02829341 0.99825114 0.2415705 -0.07744502 0.276939 -0.079766184 0.20664382
0.12159297 0.08605765 -0.0024913482 -0.085862614 -0.487683 -0.21112399 0.006158114 -0.12443886
-0.25564405 -0.30963486 -0.7796036 -0.30648518 -0.2683781 -0.3275003 0.30593345 -0.22382565
0.40249452 -0.2117345 -0.18927053 -0.31120068 0.5615342 0.3382247 0.5885832 0.23887725
0.26703236 0.15022285 -0.06587902 -0.09869311 -0.4049339 -0.38778532 0.1947685 -0.23145147
-0.39673793 -0.030747449 0.23981977 -0.063288204 -0.0493384 0.19266067 0.22430629 -0.29182306
0.37999415 -0.3515422 -0.3988684 0.20460017 0.5504977 -0.18532869 0.343532 0.04774841
-0.0012898897 -0.37835097 -0.4457518 0.24389367 -0.16773783 0.037641745 -0.21759382 0.07739472

layer1.bias f4 [128]
00000000: fe2c d5be a368 1fbe 7a1c 16be 9c52 e2bd
00000010: 121c 103f 99b8 8fbd 1806 81bd 3e27 7ebe
00000020: fcb4 d63e 0b4c 9abd cffa 86be fad1 fe3e
00000030: 43f0 2cbe daf2 35be fabb 283e 37d4 a7be
00000040: 90a8 f23e 7943 133f 476c d6be 30eb 9b3e
00000050: 20fe ac3e 63fc 9abd 92ef b33e f478 133f
00000060: 11c7 c7be 34a3 b93e 0c17 0c3f ff07 55be
00000070: 1b7d 4bbd 6cee 023f 91ff 6dbe a18b 31bc
00000080: d2b9 b0be 70c3 f0be 8c62 12be 7043 203f
00000090: bd4b 4bbe e908 38be aeac c73e c6c7 88bd
000000a0: fc6f 153f 0413 f83e 1310 82bd 9790 f53e
000000b0: 0888 cc3e b0a3 ed3e 3e62 60bd 87ca 3b3e
000000c0: 7361 b0be 0f78 8a3e 0c5a 1e3f d972 2abe
000000d0: dd10 23be b7d5 6cbd c9e0 a4be ac5d 7cbd
000000e0: c9e4 cb3e 2c32 8a3b 4e5d 9c3e f927 5ebd
000000f0: b304 c73e 12e9 55be c70e 8c3e cb85 d53e
00000100: 14a1 fa3e aff8 10be ef4f e73d c237 063e
00000110: 5577 b53e 1163 123f 269d a93d 4d3a b3be
00000120: 5c89 133f b315 82be b947 77be 541b 18be
00000130: b53d 2fbe f443 5fbe 3012 5a3e 7d29 bfbd
00000140: 5f7e d73e eca4 a0bd ea1f 183f f266 ad3e
00000150: e59f 94be 1af4 053f 1c01 89be fd90 8fbe
00000160: ea52 fa3e 7e3a d2bd 8b9f 85be fe73 e53e
00000170: b4ca 933e 482a 87bd 37b0 fc3e 3a15 dbbe
00000180: f704 ea3e e7fe 403b 0d70 203f 88f1 a23e
00000190: a9d7 be3e 621d 66be 56d2 93be 8de2 bebd
000001a0: b7bb ed3e d7b8 8fbd 3d4c 22be 76dc d53e
000001b0: 46b5 4dbe fed8 d0bd fe81 0d3f f9fc 0b3f
000001c0: f80b a53e 2f37 e13e 3a0c d23e 5db8 49be
000001d0: 4e0f 103f ef1c 153f d7e2 373a 47e6 0e3e
000001e0: b7ba e33e ef1b fd3e cdac da3e 2b5e da3e
000001f0: e7f6 c03e 2aaf f23e 9250 abbe fedf a73e
-0.4163589 -0.1556726 -0.146593 -0.11050913 0.5629283 -0.07017631 -0.062999904 -0.24819657
0.41934955 -0.07534035 -0.26363227 0.49769574 -0.16888528 -0.17768422 0.16477957 -0.32779095
0.47394228 0.5752483 -0.41879484 0.3045287 0.33787632 -0.0756767 0.35143715 0.57606435
-0.39019063 0.36257327 0.54722667 -0.20803832 -0.049679857 0.5114505 -0.23242022 -0.010836513
-0.3451677 -0.47024107 -0.14295405 0.626029 -0.1985311 -0.17972149 0.38998932 -0.06678729
0.58374 0.48452008 -0.06350722 0.47961876 0.39947534 0.46413946 -0.05478119 0.18338977
-0.34449348 0.27044722 0.6185615 -0.16645373 -0.15924402 -0.057821 -0.32202747 -0.06161277
0.39822987 0.0042174067 0.30539936 -0.05423734 0.38870773 -0.2088969 0.27355024 0.41703638
0.48951018 -0.14157365 0.11294543 0.13107207 0.35442606 0.57182413 0.08281927 -0.35005417
0.5763147 -0.2540718 -0.24148454 -0.14854175 -0.17113383 -0.21803266 0.21296 -0.09334085
0.420886 -0.07843956 0.59423697 0.33867604 -0.2902824 0.52325594 -0.2675866 -0.28040305
0.48891383 -0.10265063 -0.26098284 0.44815058 0.28865588 -0.065998614 0.4935319 -0.42789632
0.45706913 0.0029448809 0.62670976 0.318249 0.3727391 -0.22472146 -0.2887141 -0.09320555
0.46432278 -0.07017677 -0.15849395 0.4176976 -0.20088682 -0.10197638 0.5527648 0.5468288
0.32235694 0.43987414 0.41024953 -0.19699235 0.56273353 0.58247274 0.0007014698 0.13955031
0.4447839 0.49435374 0.42709962 0.4264997 0.37688372 0.47399265 -0.33459908 0.3278808

layer2.weight f4 [128, 128]
00000000: 9cc7 5b3c e44f 6b3d 1b1d a83c 8017 383b
00000010: 03be 603d 1b97 15bd d51d 583d 481f 093d
00000020: 0d8f 42bd d4ee 1c3d e939 2bbd d906 98b8
00000030: 631d 053a 4d67 a6bb 2512 6b3d ba14 7fbc
00000040: a34c 793a 95de 0abd b138 563c 3831 3a3c
00000050: 76c9 acbc e701 0dbd 2bfc 4fbb 87ef a8bc
00000060: 7e1b 94bc 399c 7bbd 66a8 e7bc 8afb 63bc
00000070: 2ea9 4f3d a07e 2c3d 53a0 2c3d 4904 5bbd
00000080: fc99 30bd b1a8 ae3c f567 0c3a 7f32 613d
00000090: 0d3f 043d f5ef 803c cfa6 973c 3cb6 5cbd
000000a0: bdaf 913a f42e ddbc 8570 4f3d 2067 6cbd
000000b0: 0698 a5ba 4b6b 773d 1605 c6bb b270 323d
000000c0: 8f41 913c 407d ecbb ebec 31bd e7e3 18bd
000000d0: f1a0 01bd 9f74 d0bc 784a 583d eec2 8bbc
000000e0: 0d41 bdbb e486 adbb a38a c838 3130 4abc
000000f0: ca36 ddbc 687b ca3c 2049 1e3d 0687 97bc
00000100: 37fb 463d d53e 0ebd 32a4 923c 4a5a 02bd
00000110: 5419 0dbd dab1 0fbd 88e7 603d d1f2 1b3d
00000120: 9936 5f3d 62bb c03c 5227 0fbc 74d8 183c
00000130: 8f8d 2e3d cb66 e13c cfa7 88bc 7c32 59bc
00000140: 29e3 14bd 8f74 983c 323b e53c 627c 2c3d
00000150: 5510 73bc 3a69 82bc c610 3abd d671 933c
00000160: 18ec 4c3d b16a 0d3b 4b37 a3bc 439f 6ebd
00000170: 9d9c 80bb 0e61 b4bc d8ea 4cbd fed5 eabc
00000180: 1482 7d3c 64c7 523c cba6 4cbb 36e8 803c
00000190: 0dec dbbc 31e8 1ebd e704 683d 1796 c53c
000001a0: 3d51 d73c 4c42 703c dba4 c7bc c067 c3bc
000001b0: 3883 2f3d 985b 4e3c 8c88 c93c 803a 03bd
000001c0: 5f7c 97bb d98b 02bd 44a7 b03c 1132 0e3d
000001d0: aa22 31bd 9f7a adbc 0eb9 c83c cd2e 26bd
000001e0: 6a65 06bd f3f0 77bd 5dce 4a3d 1b30 b3bc
000001f0: a346 4ebd bd06 e5bc ce7e 67bd dafb 503d
00000200: ac78 db3c f21e 553d 8c01 bd3c 8b74 acbb
00000210: e253 f23c 05ac 3ebd 07d8 503d 764f 243d
00000220: 17cc b4bc 5fdb 2f3d ba11 1cbd 3071 debc
00000230: fead 243b 20f2 c63b f862 fcbc 981e 17bd
00000240: dab0 4f3d d5ef 323d 16f1 f83a 14b8 14bc
00000250: c4d2 463d d338 163d 76ab 0bbd 33fb 83bd
00000260: abe6 483d 0197 2d3d fdd5 1e3d 8123 703d
00000270: db4c 2a3d e9fa 55bd 9648 393d c626 253d
00000280: 9725 1bbd 2e18 27bc acce 88bc f984 463d
00000290: 2fd5 0fbd 23da cabc f204 ceb9 0e11 5dbd
000002a0: 04c8 2fbd 8800 7b3b 1b31 223d 0cba 20bd
000002b0: 6c1e 1f3d bae5 31bd ebc6 323d a64b 633d
000002c0: 3b34 92bd 0aa0 adbc 593a 89bd 69c0 2ebd
000002d0: f3d2 333c 0259 c53c 2747 69bd 51e2 33bd
000002e0: af08 49bd 47c9 1c3d 9579 243d b08d dc3c
000002f0: fd39 4f3b 6f71 6bbd d1ab 7bbd 1957 5cbd
00000300: 7e8c 313d 3320 3abd 049b 0e3b 7082 80bc
00000310: 1bb6 963c 7400 74bd 7464 7abd 2dd0 cc3c
00000320: aab4 5c3d bd2f c8bc fbf7 e8bb f1d3 ef3c
00000330: 7809 e0ba ad98 eabc dd96 b8bb 5422 373d
00000340: 5847 383d 331e 543c 9670 293d 5130 83bd
00000350: 2dcd 8fbc eb4e 20bd 43db d53c e2e9 5c3d
00000360: 01a5 57bd d1a2 4abd 6f4a 29bc 0b9c 06bd
00000370: 0875 a3bb b079 3f3d 9798 193d 3f17 19bd
00000380: e224 a13a 5bd6 1f3d 8737 3c3c fc28 7d3b
00000390: 08f0 383d 0e6b d33c d5da 433c 7628 ebbb
000003a0: 001d 00bc 145a 77bd b174 11bb c7b7 d93c
000003b0: 3a82 34bc 234f 56bd 698d 473d 9970 aabc
000003c0: 54fb 363d 6cda ddbb bcc6 a2bc f237 75bd
000003d0: ecb4 68bd b300 24bd e45c fbbc 17c7 ebbc
000003e0: 3220 66bd e9a8 423d 7bef 6cbc 09ac 81bd
000003f0: b6dc 1d3d 8a30 2dbb 809c 0bbd f7bd a7bc
0.01341429 0.057449237 0.020521691 0.002809018 0.05486871 -0.03652106 0.052762825 0.033477098
-0.047499705 0.0383137 -0.041803274 -7.2492e-05 0.00050779263 -0.0050782324 0.05739035 -0.015568906
0.0009510016 -0.033903677 0.01307504 0.011364274 -0.021092158 -0.034425642 -0.0031735997 -0.020622028
-0.018079516 -0.061428282 -0.02827854 -0.013914952 0.05069845 0.042112947 0.042145085 -0.053470884
-0.0431156 0.021320673 0.0005356067 0.054979797 0.032286692 0.01573942 0.018512158 -0.05388473
0.0011114996 -0.026999928 0.050644416 -0.057715535 -0.0012633807 0.060405057 -0.0060430868 0.043564506
0.017731456 -0.0072170794 -0.043438833 -0.03732672 -0.031647626 -0.025446234 0.052805394 -0.017060723
-0.005775577 -0.005295621 9.562566e-05 -0.012340591 -0.027003665 0.024717048 0.038643956 -0.018497001
0.04857942 -0.03472789 0.01790056 -0.031824388 -0.034447983 -0.03508172 0.054908305 0.038073365
0.054495428 0.023526851 -0.008737402 0.00932895 0.04261547 0.027514836 -0.01668158 -0.013256665
-0.03634945 0.018610267 0.027982328 0.04211081 -0.014835437 -0.015919317 -0.045426153 0.017998617
0.050029844 0.0021578486 -0.019923827 -0.058257353 -0.0039249198 -0.022018936 -0.050028652 -0.028666493
0.015472908 0.012864921 -0.0031227346 0.015735727 -0.026845956 -0.038795654 0.0566453 0.02411942
0.026283855 0.014664244 -0.024370601 -0.023853183 0.04284975 0.01259508 0.024601243 -0.03203821
-0.0046229805 -0.03187165 0.021564133 0.034715716 -0.04324595 -0.021176634 0.024502303 -0.040571976
-0.03281156 -0.06053252 0.04951321 -0.021873524 -0.050360333 -0.027957315 -0.056517415 0.051021434
0.02679094 0.052031465 0.023072027 -0.0052629164 0.029581014 -0.04655077 0.05098727 0.040114842
-0.022069974 0.042933818 -0.038102843 -0.027153581 0.0025128121 0.006071344 -0.03080891 -0.03689441
0.05070577 0.043685753 0.0018992748 -0.009077091 0.048540846 0.036675286 -0.034099065 -0.06444397
0.049048107 0.042380337 0.038778294 0.05862761 0.0415772 -0.05224124 0.04523524 0.04032018
-0.037877645 -0.010198636 -0.016700111 0.048466656 -0.035115417 -0.024762219 -0.00039295066 -0.053971343
-0.04291536 0.0038299877 0.039597612 -0.039239928 0.038847372 -0.043431975 0.043646734 0.055492066
-0.071388684 -0.021194477 -0.06700582 -0.042663965 0.010975587 0.024090294 -0.05695262 -0.043917004
-0.049080547 0.03827789 0.040155012 0.02692303 0.0031620257 -0.057481226 -0.061443154 -0.053794
0.043346874 -0.045440864 0.0021759877 -0.015687197 0.018397382 -0.059570745 -0.061130956 0.02500161
0.053883232 -0.024436826 -0.0071096397 0.029275866 -0.0017092666 -0.028637255 -0.0056332187 0.044710472
0.044989914 0.012946653 0.041367136 -0.064057 -0.01755389 -0.039137762 0.026105529 0.053933986
-0.052647594 -0.04947168 -0.010332688 -0.032863658 -0.0049883164 0.04674691 0.037499037 -0.037375685
0.0012294317 0.039022785 0.011487848 0.0038629165 0.045150787 0.025807884 0.011954029 -0.007176454
-0.007819414 -0.06038864 -0.0022194798 0.02657689 -0.011017377 -0.052321564 0.048718844 -0.020805644
0.04467328 -0.0067704227 -0.019870155 -0.059867807 -0.056813166 -0.04003973 -0.030683942 -0.028781457
-0.056183048 0.047524367 -0.0144613935 -0.06331641 0.038540564 -0.0026426637 -0.034084797 -0.020476324

layer2.bias f4 [128]
00000000: 6a10 25bd 532b 8fbd e959 073e 8b55 37bd
00000010: 47f7 a1bb e9c5 623e ba95 adbc 30e7 32bd
00000020: 3089 36bd a9ef 383e 8ace 0abd 2247 2f3d
00000030: 51a6 1b3a cf4c c23c 2f26 34bc 4083 883d
00000040: 411e ddbc 58f5 8c3e 495d b23d f95e 153d
00000050: 454d 94bd e27d 713e 15fa 9e3b a547 31bd
00000060: b062 053d b0a6 523e 0dc4 723c e732 803e
00000070: 6088 4a3e 3be8 50bd 85fa 5bbd 3538 343e
00000080: 1109 3f3e 332a 733e 75e1 2c3e 0749 b63c
00000090: 1ea5 09bd e8eb 1a3e 3b96 f73d 5625 463e
000000a0: 01f2 053e 4f79 8dbd 6305 533d 178c 713e
000000b0: e53a 64bc ec5e fb3d 3059 6a3e 6ce3 273e
000000c0: 1a9d 933e 41bb ed3d bb6a 8b3e 4804 aabb
000000d0: 5750 4aba 46e2 4b3e deb9 263d ac89 43bd
000000e0: 7153 8e3e 96ae 7a3e b997 6a3d 5e93 8d3e
000000f0: 094e 2e3e 7ef6 463d d22c 7b3d 66e7 1a3d
00000100: 3ee6 a2bb 22bf 813e 0090 ae3c 5419 fc3d
00000110: aa85 023d 7bce b63c 1e2b 4d3e 55dc 6cbc
00000120: 034f 503e 1841 90bd 4da4 e1bb b338 ab3e
00000130: 5da9 573e f8eb 823e 58b2 9bb9 3fb3 d93d
00000140: 955c 233e 4cac 123e d7b4 613e 7920 56bd
00000150: 5bcf 873e 783a 443e b381 563e a09e 8abd
00000160: 62a1 473e 9ba2 5c3e 7a76 423e f56e 593e
00000170: dc11 353e c125 8bbd 1a9b 893e 1064 653e
00000180: c6b8 783e 5282 343e a7a8 d6bd e56f 5c3e
00000190: 349c 2a3d 3267 a93c da36 203e 40d7 023e
000001a0: ce27 243e 317d fe3d 9168 903e b366 573e
000001b0: dbb0 6fbd 0994 553d e68a dbbd b1ad 34bd
000001c0: 11bf 62bd 3eb4 3e3e 5351 8e3e b7e3 01bc
000001d0: b7a1 0f3e 9e7a 5fbd b727 e03d 5113 963e
000001e0: 69bb 7d3e 2805 90bd e23e 1a3e a8e4 883e
000001f0: ee47 993e aa61 463d 4f5f 323d 3099 743e
-0.040298857 -0.06990685 0.13217892 -0.044759315 -0.004942808 0.22145809 -0.02118956 -0.04367751
-0.044564426 0.18060173 -0.033888377 0.042792447 0.0005937564 0.023718266 -0.010995432 0.06665659
-0.026991965 0.27530932 0.08709199 0.036467526 -0.072413005 0.23583177 0.0048515894 -0.043281216
0.03256482 0.20571399 0.01481725 0.25038835 0.19778585 -0.051002722 -0.05370571 0.17599566
0.18655802 0.23746566 0.1688288 0.022251619 -0.033604734 0.15129054 0.12089201 0.1935018
0.13080598 -0.069079034 0.05151881 0.23588596 -0.013930057 0.12273964 0.22885585 0.16395348
0.28830796 0.116079815 0.27229866 -0.0051884986 -0.000771766 0.19910535 0.0407046 -0.047738716
0.27798036 0.24480662 0.0572736 0.27651495 0.17021956 0.048574917 0.06132204 0.037818335
-0.0049712947 0.25341135 0.021308899 0.123095185 0.031865753 0.022315254 0.20035979 -0.014456828
0.2034264 -0.07043666 -0.0068860413 0.33441696 0.210607 0.25570655 -0.0002969678 0.106298916
0.15953286 0.14323539 0.22041641 -0.052277062 0.26525387 0.19162929 0.20947914 -0.067685366
0.19495156 0.21546404 0.18990508 0.21233733 0.17682594 -0.0679431 0.26876146 0.22401452
0.24289235 0.17627838 -0.10481387 0.2152706 0.041652873 0.02067909 0.15645924 0.12777424
0.1603081 0.12426222 0.28204778 0.2103527 -0.058518272 0.05214313 -0.10719852 -0.044110958
-0.055357996 0.18623444 0.2779642 -0.007927827 0.14026533 -0.054560296 0.10945075 0.29311612
0.24778523 -0.070322335 0.1506305 0.2673695 0.2993769 0.048432983 0.043547925 0.23886561

layer3.weight f4 [2, 128]
00000000: 8f92 71bd ebfd 523c c45e 903e bb06 babb
00000010: cfd6 cdbe e21e b83e 2bc6 1f3d eeae 20be
00000020: d2d8 82be 4be6 8b3e 6ce7 77bc a3c2 d03d
00000030: df81 c03d bdd6 89bc fb11 6dbd 1a4a e4be
00000040: 1267 04bf 5926 b83e 584a ac3e f51f 16be
00000050: c221 b0be a175 963e 19ce 08be 96e2 3b3d
00000060: 4f91 b93a 707e 7e3e 7fbc 81be d26a c13e
00000070: 346d ac3e 6554 ecb9 a3a7 4e3d 18c2 c03e
00000080: abb0 a03e c073 b63e ae71 9d3e db70 60bd
00000090: 8b05 3ebd 9bef bd3e d308 973e 48e1 813e
000000a0: b993 c23e d2e8 e83a 2f74 86bc ea6f b83e
000000b0: 94ea a4bd e83c a33e 9925 a93e be9b ba3e
000000c0: e042 753e a086 ad3e c844 b33e deb6 ebbe
000000d0: 2863 233d 7736 8b3e 9d72 45be e327 4dbd
000000e0: d1a8 773e 706c bf3e eed3 f7be 7b6e a03e
000000f0: 41cc 993d d10d 6d3d 538f 5b3c c38f 083c
00000100: 4eac 20bf 4629 423e 7a20 1bbe 62c9 b33e
00000110: e56a 8f3c 5049 8abe 91ae b93e 1e80 433d
00000120: 4c95 c63e 3829 a2bc 98da 5dbd 0a0d a43e
00000130: 3772 c23e 8869 8c3e 506b 5c3e c3b2 ac3e
00000140: c68f 8b3e 8170 aa3e d6e2 b03e 9f32 893c
00000150: 1030 ac3e 0e2a a03e 1f8d 8b3e 405a 2cbd
00000160: ef90 c73e cb5d b83e f346 ac3e 4a63 a13e
00000170: 5ae2 cb3e 5aee 4d3d 4695 c83e 1a20 a23e
00000180: 3afb a73e 33b0 b73e 0a6f 9bbe bcf8 ad3e
00000190: 1f36 51bd e4fc 73bd 018f aa3e a485 ad3e
000001a0: 5902 9a3e 060b 933e 4d54 983e bf82 893e
000001b0: 95bd 3ebd 4fd4 27be c4a6 1bbf d505 1dbf
000001c0: 758f a13a 794e a73e 85db 633e 6349 bfbe
000001d0: 8306 ca3e ffca 00bc a1f4 c23e b7e0 c83e
000001e0: 2478 b33e bb24 6dbd 306c 993e 9532 923e
000001f0: acd6 883e 8a69 fb3e 7f71 65bd a9a5 0f3e
00000200: e49e 903c bd5a 15bd ada1 b13e e1c4 ddbc
00000210: 2630 9abe 69f4 793e 6e0d 53bd 38d1 40be
00000220: 9822 25be 82cf a03e 97d3 99bc ed4e 3bbf
00000230: bc1e 8ebe 0678 fbbc 2904 55bd 367a 393d
00000240: 10e9 1d3d e2a0 993e 0b42 b63e 781d 27be
00000250: 86aa 32bf 89a6 be3e 18c7 0f3d 0343 aebe
00000260: e367 e5ba ad28 c03e 37c2 3cbf f168 e83e
00000270: 757a ba3e 1577 49bd a45b ccbc 0f18 ad3e
00000280: d3dc 913e 37ba bf3e 0642 943e a30c 31bd
00000290: 3d52 803c 1bcb a63e 6795 a13e 0676 cb3e
000002a0: 957b 933e ca91 46bd 678d abbc c018 8d3e
000002b0: 132f 353e ac0c b33e 236f b33e 4ec0 533e
000002c0: 4bd4 b23e 1d9d bd3e 6586 923e dc67 96be
000002d0: d0b4 10bd 6eaa a13e 487d 0cbe abb0 5dbd
000002e0: 602e a23e b5f4 353e 402e 083e 27ca 8d3e
000002f0: b639 8c3e 6131 323c 46fb e63e 0c6c fabc
00000300: 4219 f93d 883c ae3e b2e2 23bf 9d3e 943e
00000310: d3c5 0cbc b750 44bf 2d9e b83e 0d92 8bbd
00000320: 6248 7f3e 0242 02bd 45fc ae3c 1f67 b83e
00000330: c369 a73e e629 b93e a799 ccbd 2deb ab3e
00000340: fc0b 9f3e c58a da3e ff24 a53e 8347 703d
00000350: dc0c bf3e 1678 9e3e bf1e ab3e e8c3 8cbe
00000360: acd1 923e e7f7 a53e eb07 5b3e 37c6 c83e
00000370: f259 b13e bff5 69be 9ca2 883e a3b9 af3e
00000380: d9d5 a33e 4e1f 8c3e 475a 033d 5568 613e
00000390: 59be 48bd d615 c2bc a461 a13e 65ad 78bd
000003a0: e4e1 b23e f5a0 823e 47f9 6b3e 5327 b03e
000003b0: c7ef 4e3d d6be f3bd 3f5e 17bf bfdd 01bc
000003c0: b5e2 1abc eb3d b13e dfae bb3e a14d 9c3d
000003d0: 329c a43e 0166 cbb9 ba7f b63e df50 9d3e
000003e0: f5cc b73e 6f75 19bf fad2 b43e a551 563e
000003f0: d856 b23e cc7d dfbd be5f 9f3c 7348 cc3e
-0.05897766 0.012877922 0.281973 -0.005677072 -0.40202948 0.35961062 0.039007347 -0.1569173
-0.25556046 0.27324137 -0.015130859 0.10193374 0.09399771 -0.016826028 -0.057878476 -0.44587785
-0.5171977 0.35966757 0.3365047 -0.14660628 -0.34400755 0.2938662 -0.1335987 0.045870386
0.0014157685 0.2485292 -0.25339124 0.3777681 0.33677065 -0.00045076307 0.05045284 0.37648082
0.31384787 0.35635185 0.30750793 -0.054795127 -0.046392005 0.37096867 0.2949892 0.25367188
0.38003328 0.0017769581 -0.016412823 0.36022884 -0.08052555 0.31882405 0.33036497 0.36446947
0.23951292 0.33891773 0.35013413 -0.46037954 0.039889485 0.2718999 -0.19282003 -0.050086867
0.24185492 0.3738742 -0.48403877 0.3133429 0.075096615 0.057874504 0.01340087 0.008335057
-0.62762916 0.18961057 -0.15149108 0.3511458 0.017507026 -0.27009058 0.36265996 0.047729604
0.3878578 -0.019795045 -0.054163545 0.32041198 0.37977764 0.27424264 0.21525311 0.33730134
0.27258128 0.3328896 0.34548062 0.01674777 0.3363042 0.31282085 0.27256104 -0.042078257
0.38977763 0.36009058 0.3364788 0.31521064 0.3982113 0.050276138 0.39176387 0.31665117
0.32808858 0.35876617 -0.30358154 0.33978832 -0.051077005 -0.059567347 0.33312228 0.33891022
0.30079916 0.28719348 0.29751816 0.26857564 -0.04656752 -0.16389583 -0.6080134 -0.61337024
0.0012326079 0.32677057 0.22251709 -0.37360677 0.39458093 -0.007860898 0.38077262 0.39233944
0.35052598 -0.057896357 0.29965353 0.28554216 0.26726282 0.49103957 -0.05601644 0.14028038
0.01765389 -0.036463488 0.3469366 -0.027071418 -0.3011486 0.24409641 -0.05152648 -0.1882981
-0.16126478 0.31408316 -0.018777652 -0.73167306 -0.27757823 -0.03069688 -0.05200592 0.045282565
0.038552344 0.30005556 0.35597262 -0.16319835 -0.6979145 0.3723643 0.03510198 -0.340355
-0.0017502274 0.37531033 -0.7373385 0.45392564 0.36421552 -0.04918583 -0.024946041 0.33807418
0.28488788 0.37446758 0.28956622 -0.043224942 0.015664214 0.32576832 0.31559297 0.39738482
0.28805223 -0.04847888 -0.02094145 0.27557945 0.17693739 0.34970605 0.35045728 0.20678827
0.34927592 0.3703393 0.2861816 -0.29376113 -0.035328686 0.3157534 -0.13719666 -0.05412356
0.31676006 0.1776913 0.13298893 0.27693292 0.2738778 0.010876031 0.4511358 -0.030569099
0.12163021 0.34030557 -0.64017785 0.2895402 -0.008592087 -0.7668566 0.3605818 -0.06814966
0.24929956 -0.03180123 0.021360526 0.36016175 0.32697877 0.36164778 -0.09990244 0.33577862
0.3106383 0.42683998 0.32254788 0.05866195 0.37314498 0.30950993 0.33421895 -0.27493215
0.28675592 0.32415697 0.21389739 0.39213726 0.34638935 -0.22847651 0.2668656 0.34321317
0.3199909 0.27367634 0.032068517 0.22012456 -0.049009655 -0.023692053 0.31519806 -0.060712237
0.34937966 0.25513425 0.2304431 0.34405002 0.05052164 -0.119016334 -0.59128183 -0.007926404
-0.009453465 0.34617552 0.36656854 0.07631994 0.32150418 -0.00038795176 0.35644323 0.30725762
0.35898557 -0.59944814 0.35317212 0.20929582 0.34831882 -0.10912666 0.019454833 0.39899024

layer3.bias f4 [2]
00000000: 1355 853d 41ec 433d
0.06510367 0.04783273
